my_model_6/topic_embeddings.safetensors (safetensors, 24664 bytes, 1 tensors)

topic_embeddings f4 [16, 384]
-0.02077767 -0.016457839 0.031400118 0.05406497 0.034000535 0.0401944 0.06081798 0.0021750357
-0.004608674 -0.039037663 0.004487974 -0.022069396 -0.010073604 -0.007822525 0.02001199 0.0069148615
0.003458591 -0.028631661 -0.061912887 0.018089788 -0.038422238 0.010204077 -0.059388123 0.02634671
-0.04408679 0.08310456 -0.04694241 -0.014174494 0.017841488 -0.011199278 0.039747536 0.047623854
0.016307574 0.015218654 0.012918053 0.004609766 -0.01902695 0.046587642 0.010698897 -0.030213803
-0.031675614 -0.019967152 0.04104691 -0.02935794 -0.010284814 -0.052365948 -0.029725544 -0.02480076
0.03893401 -0.026562057 -0.03123605 -0.050945226 -0.019612206 0.011075404 0.028936405 0.011810163
0.0082349 0.043749005 -0.0054332125 0.0038485287 -0.015470081 0.006848232 -0.004838278 -0.022352558
0.022158185 0.049721375 -0.016655542 0.024186367 0.038861107 0.044546947 -0.053278133 -0.025242765
-0.033029795 0.013420457 0.013521732 0.045855828 0.012819515 -0.036122065 0.03355661 0.02741356
-0.033053063 0.026470598 -0.050115444 0.01734717 -0.041433126 -0.016434237 -0.0277032 -0.020778008
-0.003823116 -0.0112221455 -0.00293034 -0.033571 0.045890138 0.016056856 -0.019842815 -0.034638956
-0.04593698 -0.006432266 -0.07226617 0.05890569 -0.016265733 0.015121344 0.045506813 0.02215252
0.018785322 0.02395986 0.0036669704 -0.0005811812 -0.02649208 0.003418339 -0.06018649 -0.008328529
-0.025316902 -0.061779622 0.038548607 -0.005061912 0.006431289 0.025048703 0.012323525 0.04614344
-0.018887652 0.030959895 -0.031517632 0.022471841 0.0019223166 0.027429499 0.0042738253 1.561176e-32
0.07834603 -0.040325228 0.020094411 0.06277155 0.010470566 0.039406847 -0.024831474 0.027438594
0.035288963 -0.029382167 0.029323623 0.007570992 -0.030379724 -0.03526791 -0.023114456 -0.03968578
-0.04269514 0.0074927686 -0.028123178 0.05957833 0.006431544 -0.015362052 0.01361369 0.008555668
0.005282306 -0.02515349 0.01623363 0.0030801478 0.01358247 -0.00862016 -0.010275457 0.038684238
0.030623216 -0.055445857 -0.038189847 0.011742718 0.030470554 -0.0066419025 -0.018622525 -0.071811594
-0.031225162 0.029228607 -0.019557768 -0.010558441 0.07799517 0.025655735 0.00576441 -0.04819313
-0.056421872 0.04154286 -0.03743809 0.012213035 -0.0014390536 -0.010746395 -0.053349935 -0.008006814
-0.036758702 -0.0019123608 0.031244438 0.01676912 0.06610334 -0.04659008 -0.016099136 -0.06989125
-0.005927493 -0.037582904 0.05577773 -0.052674547 -0.035182778 0.036122225 -0.021984035 0.038824357
0.013102415 0.010837252 0.025502516 0.027396398 -0.026577773 -0.06905844 -0.043924436 -0.014020258
0.0028738547 -0.026316365 -0.004754164 0.018082222 0.055430673 0.006973897 -0.024790773 -0.0568497
-0.064837866 0.0097230235 -0.0327409 0.021234572 0.085346945 0.006193506 -0.029389018 -1.3969845e-32
-0.022727774 0.000606999 -0.0057295193 0.022597041 0.04015304 -0.03483251 -0.03288618 -0.008525214
0.057068467 0.07075836 0.002854459 -0.018972155 0.043353878 0.04317972 -0.026276803 -0.0464278
0.039803516 -0.0076327124 -0.02164781 0.011353137 -0.018125597 0.08156478 -0.06555207 0.022139048
0.010193237 0.020522805 -0.00034092637 0.016679503 -0.007844768 -0.024911206 -0.010945266 0.026879082
00000000: ef35 aabc 97d2 86bc 699d 003d 3b73 5d3d
00000010: 2544 0b3d e2a2 243d 461c 793d 0b8b 0e3b
00000020: 5c04 97bb f5e5 1fbd db0f 933b e1ca b4bc
00000030: c20b 25bc 0c2a 00bc 2ff0 a33c 1096 e23b
00000040: 87a9 623b f28c eabc 5e98 7dbd 0931 943c
00000050: a360 1dbd 002f 273c f640 73bd 0ed5 d73c
00000060: 5a94 34bd b932 aa3d af46 40bd 233c 68bc
00000070: 5028 923c 2d7d 37bc 50ce 223d 3b11 433d
00000080: 7697 853c a957 793c 3ea6 533c 850d 973b
00000090: 68de 9bbc afd2 3e3d 6d4a 2f3c f082 f7bc
000000a0: 4abe 01bd 2792 a3bc ce20 283d 1080 f0bc
000000b0: a381 28bc ad7d 56bd fc82 f3bc f72a cbbc
000000c0: 4579 1f3d ac98 d9bc bfe2 ffbc f1ab 50bd
000000d0: c7a9 a0bc 9c75 353c 0a0c ed3c 6a7f 413c
000000e0: adeb 063c 2832 333d 1709 b2bb 9937 7c3b
000000f0: 3976 7dbc 2267 e03b 6b8a 9ebb b61c b7bc
00000100: 1585 b53c a4a8 4b3d 3471 88bc 7d22 c63c
00000110: d32c 1f3d dc76 363d 2c3a 5abd eac9 cebc
00000120: 404a 07bd 7ae1 5b3c 418a 5d3c 52d3 3b3d
00000130: f108 523c bbf4 13bd a872 093d 6792 e03c
00000140: a662 07bd ded8 d83c da45 4dbd a71b 8e3c
00000150: c8b5 29bd 18a1 86bc d2f1 e2bc a436 aabc
00000160: 3e8d 7abb 17dd 37bc f20a 40bb bf81 09bd
00000170: 4cf7 3b3d ab89 833c 668d a2bc 94e1 0dbd
00000180: 6a28 3cbd c2c5 d2bb 4900 94bd 1847 713d
00000190: b73f 85bc 83bf 773c 5a65 3a3d 3479 b53c
000001a0: ade3 993c 7847 c43c 8e51 703b 695a 18ba
000001b0: eb05 d9bc 3606 603b 1c86 76bd 6274 08bc
000001c0: 6465 cfbc a10c 7dbd 25e5 1d3d 65de a5bb
000001d0: 90bd d23b f032 cd3c 9ce8 493c e700 3d3d
000001e0: 47ba 9abc 9b9f fd3c a218 01bd de16 b83c
000001f0: 3ef6 fb3a d4b3 e03c 720b 8c3b 2d1f a20a
00000200: e273 a03d 112c 25bd 099d a43c 5f8e 803d
00000210: bd8c 2b3c 1369 213d 606b cbbc e7c6 e03c
00000220: 298b 103d dfb2 f0bc 1838 f03c 1616 f83b
00000230: e6de f8bc 1675 10bd 875a bdbc 8e8d 22bd
00000240: 19e1 2ebd e685 f53b 9462 e6bc 6808 743d
00000250: b4bf d23b 1eb1 7bbc f40b 5f3c 132d 0c3c
00000260: 3217 ad3b b10e cebc 64fc 843c 4edc 493b
00000270: 0289 5e3c 923b 0dbc 645a 28bc 5d73 1e3d
00000280: 8add fa3c 321b 63bd f56c 1cbd 8764 403c
00000290: 629d f93c 51a4 d9bb 448e 98bc f511 93bd
000002a0: e9cb ffbc d570 ef3c 9d37 a0bc 50fd 2cbc
000002b0: efbb 9f3d fa2b d23c 60e3 bc3b 2966 45bd
000002c0: 9f1a 67bd d928 2a3d af58 19bd 2e19 483c
000002d0: a09e bcba a611 30bc 7685 5abd 032f 03bc
000002e0: 4b90 16bd 2ea8 faba 56f4 ff3c 655f 893c
000002f0: 3061 873d 3dd5 3ebd 56e2 83bc 2523 8fbd
00000300: 6a3b c2bb 88f0 19bd 3077 643d 44c1 57bd
00000310: d11b 10bd e6f4 133d dd17 b4bc 4a06 1f3d
00000320: 83ab 563c bb8e 313c a7ea d03c 696e e03c
00000330: a1b9 d9bc 836e 8dbd 1cea 33bd 39b5 65bc
00000340: 4857 3c3b 6b95 d7bc d1c8 9bbb 2b21 943c
00000350: 460b 633d 4a85 e43b 0516 cbbc 3bdb 68bd
00000360: b7c9 84bd 514d 1f3c 521b 06bd 20f4 ad3c
00000370: 61ca ae3d e5f2 ca3b 3dc1 f0bc 3812 918a
00000380: 992f babc 031f 1f3a b1be bbbb 6e1d b93c
00000390: 8477 243d 89ac 0ebd a9b3 06bd 57ad 0bbc
000003a0: a0c0 693d c2e9 903d e011 3b3b 7e6b 9bbc
000003b0: d693 313d 38dd 303d 7342 d7bc 142b 3ebd
000003c0: 0309 233d d51b fabb bf56 b1bc 8202 3a3c
000003d0: 227c 94bc 6f0b a73d 2a40 86bd f35c b53c
000003e0: 8901 273c 711f a83c 5dbe b2b9 74a3 883c
000003f0: 5887 00bc 9612 ccbc c653 33bc 8531 dc3c
